model.pth (torch, 179055 bytes, 10 tensors)

conv1.weight f4 [6, 3, 5, 5]
0.14771529 -0.02211185 0.012012789 0.09495181 -0.018227015 0.008714634 0.12906352 0.09964469
0.08971261 -0.021363018 0.094472766 0.017807335 0.01373664 0.10030771 0.0026012603 -0.05669597
0.05975175 0.12006763 -0.036333464 0.06811791 -0.08049555 0.065659374 0.07520502 0.012994416
-0.058024243 -0.03086939 0.08692496 0.091220714 0.13472101 0.11820486 -0.016906658 0.03208878
0.12316772 0.13756403 -0.024329273 -0.064191274 0.025834044 0.06270307 0.12648916 0.01872967
0.014153179 -0.03633934 0.008918863 2.1723012e-05 -0.0124734165 0.11951037 0.010926783 -0.078193486
0.03487205 -0.10217199 0.031159557 -0.065786585 0.14004211 0.089096256 -0.0591648 0.003126111
-0.05561616 0.0837599 0.1420634 0.040069103 0.12302917 -0.02422734 0.044311263 0.034578815
-0.016808907 0.14489482 0.020581536 0.049774125 0.077383354 0.011003997 0.0796086 0.037424963
-0.027943593 -0.08111861 0.061557557 -0.056419842 0.007839585 0.07804964 0.050733883 0.09798175
0.047811016 0.05186218 -0.10972262 -0.041985787 0.011083892 -0.091200255 0.08180024 -0.07994161
0.10424552 -0.044233985 -0.09351426 0.047353987 0.09341469 -0.061314177 -0.06251629 -0.04544154
0.014264912 -0.03586425 -0.018647632 -0.024218475 0.003150521 0.036150854 0.05364423 -0.06761816
-0.013866235 0.0030548817 0.050688993 0.06031486 0.098179854 -0.0784953 -0.085439704 -0.015626723
0.023196537 0.0036413355 0.10447747 0.073929146 -0.038001247 -0.022830619 0.06911821 -0.0358797
-0.032856993 -0.10463614 0.10226874 0.037024464 0.07840253 0.010595953 -0.021074468 -0.028984504
-0.008420118 -0.04458178 -0.022362053 -0.06209376 -0.012395818 -0.022803072 -0.0687143 -0.05194528
0.07313384 -0.019856308 -0.10831042 -0.035166003 0.011113075 -0.051028434 0.036029227 -0.07712247
-0.054969434 0.047374975 -0.07520782 0.039310228 -0.066572346 0.051695228 -0.09471516 -0.08134652
-0.08279744 0.07896384 -0.004600951 0.054723598 -0.03201819 -0.029193865 -0.00030404696 0.09675486
-0.07759624 -0.04171713 0.11845405 0.04357345 0.12147822 0.09811206 -0.020054288 -0.09113992
0.07100895 -0.029353691 0.11743722 0.00030821146 0.0010943634 -0.060452435 -0.105685905 -0.061427686
0.061336204 0.10217303 0.06052846 -0.05345677 -0.088290974 -0.035741203 -0.092942104 -0.008742338
0.046318408 -0.09248182 -0.022652814 -0.008079509 0.12416801 -0.038379196 -0.021563258 -0.05525901
-0.03110726 -0.056566093 -0.018459018 0.014296007 0.011052965 -0.035269797 -0.108894534 -0.08153957
0.08513265 0.099077344 -0.003389445 0.11648734 -0.08124429 0.039987627 -0.11334674 0.056990504
-0.0974289 -0.028764166 0.08637832 0.0724756 0.022751283 0.06345294 0.06906515 0.101978056
-0.105138525 -0.08325254 -0.03746034 -0.052789524 0.09358364 -0.0643639 -0.020949129 0.0471938
0.083876796 -0.035161242 0.04615713 0.10260221 0.08001603 0.11411736 0.1283474 0.122511186
0.16926044 0.11548774 -0.040007785 0.068411954 0.16213693 0.12266933 -0.06336735 0.011551527
0.030963216 0.06840514 0.061991468 0.057840206 -0.034259476 0.076055236 0.013207997 -0.024989732
-0.08608193 0.053093083 0.026177423 0.11816725 0.050552875 0.045230288 0.01131711 0.1268894
00000000: ad42 173e e923 b5bc 4ad1 443c 1876 c23d
00000010: d250 95bc d3c7 0e3c 3a29 043e 8412 cc3d
00000020: 3fbb b73d 7f01 afbc f07a c13d b0e0 913c
00000030: a50f 613c 216e cd3d e879 2a3b 093a 68bd
00000040: 40be 743d 05e6 f53d 66d2 14bd 6781 8b3d
00000050: dada a4bd 6c78 863d 1705 9a3d 88e6 543c
00000060: d4aa 6dbd cee1 fcbc b705 b23d edd1 ba3d
00000070: 4ef4 093e 6415 f23d d57f 8abc 866f 033d
00000080: 5c3f fc3d 96dd 0c3e 2f4e c7bc b776 83bd
00000090: eba1 d33c 786a 803d 6086 013e f76e 993c
000000a0: bce2 673c 8fd8 14bd 6c20 123c d039 b637
000000b0: 4d5d 4cbc dac1 f43d 4006 333c e823 a0bd
000000c0: ffd5 0e3d 8c3f d1bd 5442 ff3c 1ebb 86bd
000000d0: 3367 0f3e 1978 b63d ca56 72bd 71df 4c3b
000000e0: c5cd 63bd 4f8a ab3d 1179 113e 801f 243d
000000f0: b8f6 fb3d 6a78 c6bc ba7f 353d 84a2 0d3d
00000100: d5b2 89bc 4f5f 143e 9c9a a83c f4df 4b3d
00000110: 2a7b 9e3d 1c4a 343c d509 a33d eb4a 193d
00000120: f6e9 e4bc 8421 a6bd c723 7c3d 7e18 67bd
00000130: 9a71 003c 7dd8 9f3d 55ce 4f3d a8aa c83d
00000140: 7cd5 433d 706d 543d 41b6 e0bd 4af9 2bbd
00000150: 3699 353c 33c7 babd e286 a73d 6db8 a3bd
00000160: ad7e d53d b22e 35bd 6884 bfbd 41f6 413d
00000170: 3350 bf3d 9324 7bbd 8a08 80bd e920 3abd
00000180: 61b7 693c 64e6 12bd ebc2 98bc d365 c6bc
00000190: f978 4e3b eb12 143d 0dba 5b3d 647b 8abd
000001a0: 342f 63bc 6934 483b 439f 4f3d b70c 773d
000001b0: 8512 c93d 25c2 a0bd 03fb aebd 9d03 80bc
000001c0: aa06 be3c 79a3 6e3b 49f8 d53d 2a68 973d
000001d0: 32a7 1bbd 4707 bbbc d98d 8d3d 98f6 12bd
000001e0: 0e95 06bd 794b d6bd 4672 d13d f7a6 173d
000001f0: 8191 a03d a69a 2d3c 5da4 acbc e970 edbc
00000200: 89f4 09bc 629b 36bd a030 b7bc 0756 7ebd
00000210: d417 4bbc 82cd babc 15ba 8cbd 93c4 54bd
00000220: 32c7 953d b2a9 a2bc dad1 ddbd 3a0a 10bd
00000230: 9d13 363c 3103 51bd 6293 133d 63f2 9dbd
00000240: a127 61bd 430c 423d 8f06 9abd c303 213d
00000250: 1557 88bd 60be 533d 06fa c1bd 0199 a6bd
00000260: b491 a9bd cbb7 a13d 93c3 96bb da25 603d
00000270: 8125 03bd f927 efbc 7e68 9fb9 6927 c63d
00000280: c7ea 9ebd 95df 2abd 0998 f23d 137a 323d
00000290: 93c9 f83d faee c83d e448 a4bc 91a7 babd
000002a0: 246d 913d 2777 f0bc ed82 f03d 7197 a139
000002b0: be70 8f3a f99c 77bd da71 d8bd 999b 7bbd
000002c0: ac3b 7b3d 1840 d13d b1ec 773d 7cf5 5abd
000002d0: e6d1 b4bd 5e65 12bd 6e58 bebd 063c 0fbc
000002e0: 5fb8 3d3d 1c67 bdbd 6592 b9bc eb5f 04bc
000002f0: cc4b fe3d 8133 1dbd 6ea5 b0bc 4657 62bd
00000300: a7d4 febc d9b1 67bd 5e37 97bc cd39 6a3c
00000310: 7f17 353c 1077 10bd 1904 dfbd 38fe a6bd
00000320: 075a ae3d 10e9 ca3d 7321 5ebb ea90 ee3d
00000330: 6863 a6bd 11ca 233d 5622 e8bd e06e 693d
00000340: ce88 c7bd d4a2 ebbc 1ee7 b03d 166e 943d
00000350: e660 ba3c 9df3 813d 0872 8d3d dfd9 d03d
00000360: de52 d7bd 4f80 aabd 0370 19bd d439 58bd
00000370: c8a8 bf3d 38d1 83bd 829d abbc 494e 413d
00000380: 99c7 ab3d 3c05 10bd 420f 3d3d 1c21 d23d
00000390: 72df a33d 5db6 e93d 806d 033e 25e7 fa3d
000003a0: 9c52 2d3e d684 ec3d 34df 23bd 911b 8c3d
000003b0: 3907 263e 0f3a fb3d bec6 81bd 9e42 3d3c
000003c0: 92a6 fd3c fe17 8c3d c4ea 7d3d dae9 6c3d
000003d0: aa53 0cbd d9c2 9b3d 5b66 583c 44b7 ccbc
000003e0: b94b b0bd 2278 593d 0972 d63c ac01 f23d
000003f0: 8810 4f3d 6543 393d 666b 393c 4bef 013e

conv1.bias f4 [6]
-0.041298233 -0.06252949 0.047194377 -0.053178564 -0.11539593 -0.04925716
00000000: 5628 29bd 760f 80bd e44e 413d c4d1 59bd
00000010: b454 ecbd e0c1 49bd

conv2.weight f4 [16, 6, 5, 5]
0.12965368 0.049161207 0.044239078 0.12580523 0.11213858 0.12264517 0.056531373 0.045633186
-0.033943065 -0.022393884 0.024980264 -0.08101033 -0.048524912 -0.02816393 -0.027008703 -0.038511463
-0.0765158 -0.042070217 -0.08543658 -0.059374068 0.03886717 -0.079495765 -0.07989861 0.039785884
0.021644332 0.012679881 -0.05616735 -0.0174193 0.02526584 0.0013753545 0.012929112 -0.019133588
0.01060697 0.007939504 -0.039783 0.046957623 -0.032178864 0.06932412 -0.06382422 0.07727708
-0.06027004 -0.077151895 -0.049440734 -0.019046586 -0.06293863 0.0010496404 0.0444102 0.022677872
-0.032753617 -0.03941746 -0.040454257 0.04347316 -0.028665375 0.05448944 0.062085252 0.03891866
-0.02686169 -0.06797451 -0.03260946 0.0010254347 -0.005783136 0.040178083 0.021062605 -0.061785877
0.0007193768 -0.02113991 -0.04914636 -0.032653634 0.03322258 -0.078747645 0.074322164 -0.062569275
-0.060230177 -0.006293417 0.036019843 0.19921528 0.16345626 0.16253293 0.092946395 0.14471926
0.0661937 0.0921575 -0.008064256 0.065231115 0.0101493765 -0.011373807 0.011827357 -0.0019664573
0.008556884 -0.054722372 -0.022917831 -0.025225462 -0.0052499673 -0.029354379 0.01985677 -0.0798633
-0.07076953 -0.13607599 -0.14591429 -0.13185881 -0.072563134 -0.011810502 0.07915967 -0.05154629
0.030086959 -0.031680826 0.008464306 0.023868276 0.038060088 0.042357232 0.05388249 -0.046365466
0.019907124 0.027471052 -0.039702754 -0.03624314 0.05498861 -0.029969806 0.012233241 -0.0010537595
-0.042134933 -0.030041957 0.061779086 0.06871284 -0.07078321 0.014654455 -0.058566242 0.077502675
0.025181197 -0.029188756 -0.015955435 0.008896538 -0.072591 0.04319354 -0.0043426505 0.03508659
-0.06436508 0.076849476 -0.014037946 0.04978205 0.072842464 0.06315373 0.045319926 -0.029252686
-0.035478637 0.003311792 -0.068550184 -0.074588336 0.009189287 0.008437914 0.06430822 0.004138523
0.03131803 -0.024563933 0.016653067 -0.0367129 0.047334135 0.070232585 -0.057034105 0.080808364
-0.045776717 0.06019777 0.00897282 -0.025578255 0.07409082 0.046318598 -0.06807559 -0.06099381
0.03819063 -0.076111205 -0.029043477 0.014879669 0.03155926 -0.06946949 0.019648135 0.07379859
0.03505859 0.042620894 -0.058591202 -0.04640518 0.025957579 0.02675554 0.062301524 -0.03366804
0.02285209 0.009982902 -0.021505103 -0.020776298 -0.02096988 0.0213674 0.06336151 -0.08071339
-0.0017420909 0.07793018 0.015300099 0.033658855 -0.021896034 -0.0067733936 -0.052671935 0.073848926
-0.052929968 -0.025475897 -0.04195844 -0.0134425815 -0.003417218 0.0056348382 0.069007516 -0.04857532
0.012282546 -0.009558656 -0.040946074 0.034625694 0.03428744 -0.019560935 -0.013753233 0.06542343
0.06369195 0.05546686 -0.00713871 -0.06445902 0.062466625 -0.018004406 0.0051289587 0.05276971
-0.07313842 0.09633777 0.029482007 0.11352974 0.032185446 0.056074474 0.0529494 0.07152389
-0.060990013 -0.046200894 -0.059246413 -0.028165402 -0.041384973 -0.05532547 0.048928104 -0.03264992
0.027784562 0.04879189 0.0073721237 -0.0019331691 0.050425276 0.013455561 0.0075103394 -0.036322497
-0.085608564 -0.04563982 0.051603466 0.072343186 -0.038561236 0.023616178 0.014910718 0.030648438
00000000: efc3 043e 435d 493d 0934 353d 16d3 003e
00000010: e9a8 e53d 642d fb3d 718d 673d dde9 3a3d
00000020: e207 0bbd 6173 b7bc 69a3 cc3c bee8 a5bd
00000030: 0fc2 46bd 0bb8 e6bc 5b41 ddbc 32be 1dbd
00000040: 51b4 9cbd d251 2cbd 60f9 aebd 3932 73bd
00000050: 2f33 1f3d adce a2bd e2a1 a3bd 86f6 223d
00000060: 744f b13c 47bf 4f3c bc0f 66bd ebb2 8ebc
00000070: 4ffa ce3c 3d45 b43a a0d4 533c 0bbe 9cbc
00000080: dbc8 2d3c b214 023c 80f3 22bd a356 403d
00000090: fccd 03bd cef9 8d3d 46b6 82bd 7243 9e3d
000000a0: b8dd 76bd d001 9ebd 5e82 4abd 9607 9cbc
000000b0: f8e5 80bd 1694 893a 78e7 353d f2c6 b93c
000000c0: a828 06bd 3474 21bd 5db3 25bd ea10 323d
000000d0: a6d3 eabc 5230 5f3d 1b4d 7e3d 2c69 1f3d
000000e0: 0c0d dcbc 3836 8bbd 7f91 05bd e167 863a
000000f0: 7680 bdbb c691 243d 7c8b ac3c 3013 7dbd
00000100: 8f94 3c3a 9b2d adbc b24d 49bd d1bf 05bd
00000110: 6614 083d 7246 a1bd 3836 983d 5224 80bd
00000120: ebb3 76bd 0239 cebb 8b89 133d 17ff 4b3e
00000130: 1461 273e 086f 263e ae5a be3d 4931 143e
00000140: 9090 873d 12bd bc3d f11f 04bc e497 853d
00000150: 9249 263c 3459 3abc 88c7 413c aedf 00bb
00000160: 2c32 0c3c 9124 60bd 2dbe bbbc a1a5 cebc
00000170: eb07 acbb 9878 f0bc aaaa a23c 5f8f a3bd
00000180: 9eef 90bd 8157 0bbe 8e6a 15be ff05 07be
00000190: fb9b 94bd d680 41bc 771e a23d 3422 53bd
000001a0: ed78 f63c c1c3 01bd dfad 0a3c 6787 c33c
000001b0: e5e4 1b3d c77e 2d3d e3b3 5c3d b7e9 3dbd
000001c0: 4414 a33c f90a e13c 5b9f 22bd b073 14bd
000001d0: bd3b 613d 3d83 f5bc ef6d 483c 4d1e 8aba
000001e0: ae95 2cbd 8d1a f6bc 110c 7d3d 51b9 8c3d
000001f0: caf6 90bd 3d19 703c 28e3 6fbd b9b9 9e3d
00000200: cc48 ce3c 421d efbc f9b4 82bc c9c2 113c
00000210: 97aa 94bd b6eb 303d cb4c 8ebb f5b6 0f3d
00000220: d7d1 83bd 4263 9d3d 6aff 65bc 43e8 4b3d
00000230: 6e2e 953d be56 813d 63a1 393d 54a3 efbc
00000240: 0c52 11bd a60a 593b 0a64 8cbd c5c1 98bd
00000250: aa8e 163c 2d3f 0a3c 07b4 833d 729c 873b
00000260: 5647 003d 4d3a c9bc 036c 883c 4460 16bd
00000270: 70e1 413d 1ad6 8f3d 989c 69bd db7e a53d
00000280: 5e80 3bbd f091 763d bc02 133c 7d89 d1bc
00000290: eebc 973d 92b8 3d3d 376b 8bbd a5d4 79bd
000002a0: c76d 1c3d 31e0 9bbd 96ec edbc dbc9 733c
000002b0: 4844 013d 0546 8ebd 20f5 a03c b723 973d
000002c0: 9999 0f3d 3f93 2e3d 54fd 6fbd 5c13 3ebd
000002d0: fda4 d43c 6f2e db3c e22f 7f3d 80e7 09bd
000002e0: 4e34 bb3c 538f 233c 782b b0bc 0e33 aabc
000002f0: 07c9 abbc b00a af3c aec3 813d 104d a5bd
00000300: df56 e4ba dc99 9f3d 44ad 7a3c dedd 093d
00000310: 505f b3bc 58f3 ddbb 87be 57bd 1b3e 973d
00000320: 18cd 58bd d4b2 d0bc 9ddc 2bbd 463e 5cbc
00000330: 68f3 5fbb 73a4 b83b d053 8d3d eaf6 46bd
00000340: bb3c 493c e99b 1cbc 12b7 27bd acd3 0d3d
00000350: fd70 0c3d 413e a0bc 3d55 61bc b8fc 853d
00000360: ed70 823d 3831 633d d7eb e9bb 1703 84bd
00000370: 01dd 7f3d fa7d 93bc d310 a83b 0d25 583d
00000380: 99c9 95bd bd4c c53d 4084 f13c 4882 e83d
00000390: e3d4 033d 59ae 653d 78e1 583d 1e7b 923d
000003a0: aad0 79bd 263d 3dbd 5eac 72bd 21bb e6bc
000003b0: 4a83 29bd f69c 62bd d668 483d ecbb 05bd
000003c0: 739c e33c 01da 473d db91 f13b 6462 fdba
000003d0: bc8a 4e3d b774 5c3c 4b19 f63b e6c6 14bd
000003e0: 8b53 afbd d2f0 3abd 285e 533d aa28 943d
000003f0: 63f2 1dbd b776 c13c 164c 743c 6f12 fb3c

conv2.bias f4 [16]
0.060271252 -0.034199517 -0.0028417856 -0.06354784 0.02153912 0.021294178 -0.03947065 0.06765589
-0.06499128 -0.035000652 0.016617509 -0.0008673372 -0.03477134 -0.09072253 -0.066319846 0.088088244
00000000: fdde 763d cb14 0cbd 403d 3abb 5f25 82bd
00000010: cf72 b03c 2171 ae3c faab 21bd 2c8f 8a3d
00000020: 261a 85bd d85c 0fbd 7121 883c 045e 63ba
00000030: 656c 0ebd bccc b9bd b3d2 87bd 9c67 b43d

fc1.weight f4 [120, 256]
-0.05013158 0.03407738 -0.015399017 -0.0041019563 -0.025314087 0.06461943 0.04675367 -0.046980705
0.064272836 0.042101536 0.016913865 0.061734267 -0.015404585 -0.044972066 0.06018428 -0.033947743
0.047877897 -0.044607654 -0.059806492 0.057475258 -0.0442137 0.023364067 0.02989619 0.049151406
0.044356987 -0.0039790687 -0.046829008 -0.024070146 0.037546657 0.0058447896 0.013423513 0.05515512
-0.044871245 0.00047655357 -0.05792965 0.044973657 -0.044132896 -0.010257998 -0.0011645332 0.04771815
-0.055368222 0.04473378 -0.015586936 0.04601287 -0.050855715 0.03580789 -0.043305263 -0.041768756
-0.0025090706 -0.0027839325 -0.05490048 -0.018707361 -0.008179619 -0.041929655 0.046591204 0.034828104
-0.025887001 -0.022624359 0.04087584 -0.02757123 0.027588287 0.035419118 0.042953257 0.020913348
0.044333436 -0.051936306 0.049437243 0.010680987 0.014508793 -0.04265794 0.0070982426 0.008428824
-0.041851923 0.05678357 -0.04707609 0.024301456 -0.046041373 -0.03633027 0.051942788 0.017668087
-0.049949467 0.037025224 -0.06166153 -0.032185473 -0.061148986 0.020097848 -0.05055081 0.042101905
-0.02388328 0.033119608 -0.058000274 -0.030187765 0.013714036 -0.003494069 0.009362891 0.054518662
0.058774993 0.0033991337 0.0274859 -0.016939238 0.009658255 0.010905996 0.022974283 -0.061179876
-0.060641542 -0.042416096 -0.013051458 -0.02268558 0.005737506 -0.022465698 0.03333465 0.041620463
-0.025569197 -0.05899114 0.035747148 -0.049726497 0.019571427 -0.045788463 0.014725704 0.050582554
-0.006536355 -0.031952962 -0.005631981 -0.02519953 -0.04275447 -0.011811776 -0.04670843 0.008198214
0.01774292 0.0009050131 -0.043927044 0.01220291 -0.023997873 0.01775636 -0.03858715 0.057802565
0.02789686 0.019271284 0.06407147 -0.008835951 0.052923873 -0.048574034 0.020252666 -0.03878106
-0.0035892588 0.06514673 0.060746107 -0.035063915 0.062180817 0.0053249565 0.04093813 0.016359199
-0.046559576 -0.05300538 -0.0003018117 -0.022276156 0.003019521 0.026505997 0.046707183 0.0052366382
0.00034223852 0.012545514 -0.015090474 0.046180747 -0.008820479 0.031333726 0.022376206 0.060705587
0.00086680497 0.049684193 0.046346813 0.057690203 0.017804459 0.048671436 0.018454073 -0.05610344
-0.018656127 -0.009349727 -0.049596477 -0.025470065 -0.023111405 0.020722743 0.031358883 0.0018542821
-0.039118323 0.020781042 0.009120222 -0.04281313 0.05715288 0.05596894 0.04451992 0.039999384
-0.04518359 -0.03423199 -0.018340925 -0.04782277 0.016201634 -0.00429985 -0.032006953 -0.0036841745
-0.0525653 0.05955542 0.0556467 0.025333486 0.037532628 -0.044031106 0.04763927 -0.011176659
0.03528606 -0.04940221 -0.024496103 -0.033143543 0.029621279 -0.027423337 -0.035087474 -0.028557792
0.022600241 -0.030884586 -0.026494224 -0.048927598 -0.034311585 -0.046638995 0.013512218 -0.019014508
-0.0014884461 -0.03844135 0.022902483 0.010422447 -0.0128434785 -0.05134819 0.0029771614 0.027617002
-0.047084942 -0.034748726 0.051692586 0.012757228 -0.053204857 0.053739358 0.041904975 0.04376742
-0.03458453 -0.039055124 -0.01826634 0.009816981 -0.025239453 0.04940157 -0.0043765623 -0.030628456
0.061570436 0.019318726 -0.03837123 -0.043753088 -0.00558624 0.060071435 -0.016917616 0.05630456
00000000: c656 4dbd b994 0b3d 294c 7cbc b469 86bb
00000010: 7d5f cfbc 3157 843d c780 3f3d d76e 40bd
00000020: 7aa1 833d a972 2c3d f28e 8a3c 12dd 7c3d
00000030: 8363 7cbc a134 38bd cb83 763d ca0c 0bbd
00000040: 9d1b 443d 84b6 36bd a7f7 74bd 2d6b 6b3d
00000050: 6d19 35bd 0066 bf3c dbe8 f43c fc52 493d
00000060: acaf 353d d962 82bb c6cf 3fbd c12e c5bc
00000070: 86ca 193d a685 bf3b 4bee 5b3c 56ea 613d
00000080: e9ca 37bd f0d9 f939 a447 6dbd 4c36 383d
00000090: b2c4 34bd 2911 28bc 40a3 98ba 1b74 433d
000000a0: cac9 62bd c53a 373d 5960 7fbc fe77 3c3d
000000b0: 154e 50bd 4bab 123d dc60 31bd b715 2bbd
000000c0: 386f 24bb a372 36bb 53df 60bd 2e40 99bc
000000d0: cf03 06bc 6ebe 2bbd 6bd6 3e3d eaa7 0e3d
000000e0: fa10 d4bc b856 b9bc 6d6d 273d 0fdd e1bc
000000f0: d500 e23c a313 113d c1ef 2f3d 7852 ab3c
00000100: fa96 353d 2abb 54bd b57e 4a3d 4eff 2e3c
00000110: 4ab6 6d3c 18ba 2ebd 6098 e83b 0d19 0a3c
00000120: ec6c 2bbd e495 683d dcd2 40bd d913 c73c
00000130: e195 3cbd 0dcf 14bd f6c1 543d aabc 903c
00000140: d097 4cbd c3a7 173d cd90 7cbd ead4 03bd
00000150: 5c77 7abd 3ea4 a43c 5e0e 4fbd 0c73 2c3d
00000160: dea6 c3bc 6da8 073d b291 6dbd 554c f7bc
00000170: d6b0 603c c0fc 64bb d066 193c f64e 5f3d
00000180: 0cbe 703d 00c4 5e3b 1c2a e13c 28c4 8abc
00000190: a83d 1e3c 10af 323c 9034 bc3c c097 7abd
000001a0: 4463 78bd 80bc 2dbd c8d5 55bc 1cd7 b9bc
000001b0: b001 bc3b fc09 b8bc ea89 083d 387a 2a3d
000001c0: 7e76 d1bc b2a0 71bd 9a6b 123d 03ae 4bbd
000001d0: 4254 a03c af8c 3bbd 1444 713c a72f 4f3d
000001e0: eb2e d6bb 1ce1 02bd 7b8c b8bb 3f6f cebc
000001f0: 501f 2fbd 2e86 41bc 5751 3fbd cd51 063c
00000200: 9a59 913c 673e 6d3a d8ec 33bd b7ee 473c
00000210: 3097 c4bc c975 913c 8f0d 1ebd 62c2 6c3d
00000220: f587 e43c d0de 9d3c e737 833d aac4 10bc
00000230: b4c6 583d 91f5 46bd ebe8 a53c e4d8 1ebd
00000240: c539 6bbb a66b 853d e9d0 783d 2e9f 0fbd
00000250: 50b1 7e3d f97c ae3b beae 273d ba03 863c
00000260: 41b5 3ebd 2b1c 59bd 7b3c 9eb9 7c7c b6bc
00000270: 28e3 453b 1b23 d93c 0850 3f3d 1b98 ab3b
00000280: 7a6e b339 b38b 4d3c 093e 77bc 0628 3d3d
00000290: c583 10bc cb57 003d 4e4e b73c 6ca6 783d
000002a0: 4c3a 633a a781 4b3d 28d6 3d3d 904c 6c3d
000002b0: a8da 913c b35b 473d ff2c 973c b8cc 65bd
000002c0: bcd4 98bc 992f 19bc ad25 4bbd 99a6 d0bc
000002d0: 2154 bdbc bec2 a93c 2c72 003d 620b f33a
000002e0: 893a 20bd 013d aa3c fc6c 153c d25c 2fbd
000002f0: 2319 6a3d b03f 653d 855a 363d 65d6 233d
00000300: 6e12 39bd d836 0cbd b53f 96bc cfe1 43bd
00000310: 4ab9 843c c2e5 8cbb b919 03bd 3172 71bb
00000320: b64e 57bd 62f0 733d cbed 633d 2c88 cf3c
00000330: d0bb 193d f659 34bd 6521 433d 4e1e 37bc
00000340: 1e88 103d f959 4abd 0dac c8bc 86c1 07bd
00000350: 53a8 f23c e8a6 e0bc e2b7 0fbd 08f2 e9bc
00000360: 2424 b93c ac01 fdbc 6a0a d9bc 4e68 48bd
00000370: 4e8a 0cbd 8808 3fbd 5a62 5d3c 50c4 9bbc
00000380: f717 c3ba ad74 1dbd fd9d bb3c e9c2 2a3c
00000390: 746d 52bc 7b52 52bd 7b1c 433b 0d3d e23c
000003a0: 24dc 40bd ae54 0ebd 9bbb 533d b103 513c
000003b0: 56ed 59bd cd1d 5c3d 8da4 2b3d 7745 333d
000003c0: 82a8 0dbd 44f8 1fbd 4ba3 95bc 67d7 203c
000003d0: f8c2 cebc 4d59 4a3d 4469 8fbb 87e8 fabc
000003e0: 4831 7c3d 4e42 9e3c 272b 1dbd 7036 33bd
000003f0: c70c b7bb 770d 763d d096 8abc 9c9f 663d

fc1.bias f4 [120]
-0.02052822 0.014970904 0.025049124 -0.001921959 -0.06905039 -0.03878677 -0.043742202 0.06527406
-0.011722883 0.0013979444 0.03345831 -0.030760515 -0.023830032 0.017353322 -0.004504527 -0.0016388667
0.008936945 0.04364275 0.007012613 -0.05145548 -0.025738819 0.024431914 0.030857742 -0.044565205
-0.010810194 -0.0021398044 -0.0011860976 -0.004344368 -0.027888916 -0.038976993 -0.033645876 0.04303811
0.026205465 0.07767986 -0.0039206184 -0.009199567 -0.011886521 0.051866148 0.040809635 -0.031006638
-0.044585973 0.0076347413 -0.051914193 -0.055126045 0.018110689 0.08006148 0.0031051645 -0.034108363
0.05072905 -0.018991223 0.056670155 -0.023902172 -0.017225338 -0.042183686 0.09464896 0.05842974
0.066846944 0.02558557 0.048310693 -0.042781495 0.048036043 -0.054518443 -0.035409153 -0.021436587
-0.014781187 0.04149375 -0.019239921 0.056257285 -0.050112247 -0.0481801 -0.037292976 0.0176321
0.014731186 -0.016007852 -0.046496637 0.007191667 -0.026915574 -0.012781632 -0.014820124 0.0538782
-0.045906194 -0.025647582 0.0026186244 -0.028176896 -0.00445335 -0.024532622 0.008902749 -0.025840448
-0.039014738 0.057416603 -0.00029740733 0.058554355 -0.053397972 -0.029688 -0.04645576 -0.030578263
-0.058579974 0.035340566 0.032640535 -0.05491314 0.067333005 0.033730127 -0.03822145 -0.030920858
0.019049307 0.008388546 0.0012162208 -0.025546325 0.017362295 -0.0036215552 0.022832774 0.0070055667
-0.03054886 0.104986735 -0.024731442 -0.032719728 0.037189893 0.01981178 -0.004344955 0.08698453
00000000: cc2a a8bc 8648 753c d233 cd3c 3eea fbba
00000010: 4a6a 8dbd e0de 1ebd 062b 33bd 68ae 853d
00000020: 5611 40bc 3b3b b73a 950b 093d 7afd fbbc
00000030: 3337 c3bc 8e28 8e3c b69a 93bb 3ecf d6ba
00000040: 446c 123c bdc2 323d 10ca e53b fbc2 52bd
00000050: 37da d2bc 7025 c83c 60c9 fc3c 018a 36bd
00000060: 3d1d 31bc f63b 0cbb d576 9bba 335b 8ebb
00000070: 4c77 e4bc 57a6 1fbd 42d0 09bd bb48 303d
00000080: d8ac d63c 9e16 9f3d 8878 80bb c8b9 16bc
00000090: afbf 42bc 9971 543d 0128 273d a201 febc
000000a0: c89f 36bd da2c fa3b faa3 54bd d9cb 61bd
000000b0: de5c 943c 46f7 a33d 0480 4b3b 36b5 0bbd
000000c0: 44c9 4f3d 7b93 9bbc f71e 683d 7dce c3bc
000000d0: 271c 8dbc cdc8 2cbd 50d7 c13d 0654 6f3d
000000e0: 0de7 883d d498 d13c 6fe1 453d a63b 2fbd
000000f0: 71c1 443d bb4e 5fbd 3009 11bd c89b afbc
00000100: cb2c 72bc 5af5 293d 0a9d 9dbc 0a6e 663d
00000110: 8042 4dbd 7f58 45bd 85c0 18bd 3271 903c
00000120: 135b 713c e622 83bc 4273 3ebd 13a8 eb3b
00000130: 0d7e dcbc 0d6a 51bc 1bd0 72bc 63af 5c3d
00000140: 2208 3cbd e11a d2bc 3a9d 2b3b 3cd3 e6bc
00000150: 68ed 91bb a3f8 c8bc d6dc 113c 59af d3bc
00000160: ebcd 1fbd ac2d 6b3d 56ed 9bb9 b1d6 6f3d
00000170: d5b7 5abd 4034 f3bc 6548 3ebd 447f fabc
00000180: 8ef1 6fbd 45c1 103d 15b2 053d 9aec 60bd
00000190: e3e5 893d 9a28 0a3d 188e 1cbd bd4d fdbc
000001a0: 4b0d 9c3c 1d70 093c 9969 9f3a 8746 d1bc
000001b0: 5f3b 8e3c 9d57 6dbb cc0b bb3c f48e e53b
000001c0: 9a41 fabc 4903 d73d 9899 cabc 1f05 06bd
000001d0: 6e54 183d 504c a23c 2060 8ebb f224 b23d

fc2.weight f4 [84, 120]
0.022552857 -0.08425227 0.06704596 0.06741166 0.04307186 -0.04665838 -0.029966809 0.08717666
0.022823604 0.07570723 -0.0038738376 0.03159341 0.010295391 -0.061534546 0.046714127 0.019294655
0.0026232598 -0.029510265 -0.017265024 0.071457446 -0.07722105 0.04525855 -0.08608233 0.05980169
-0.08479514 -0.0016431485 0.048587978 -0.05904377 0.042383537 -0.035283986 -0.025139138 -0.088677324
0.06888056 -0.09208389 0.08376952 0.028859943 -0.023382999 -0.0059540714 0.04553427 -0.05612746
0.018769842 0.013430988 0.07338503 -0.007590282 -0.052987777 0.040975496 -0.019484848 0.054365262
-0.040923074 -0.04573589 -0.016357541 -0.03386142 -0.03822263 -0.07358211 0.013779118 0.008944427
-0.07890815 -0.02651447 0.04667042 -0.008730538 0.040823173 0.045524288 0.060083255 -0.021353036
-0.046241723 -0.0008772224 0.03509608 -0.016224146 -0.093783125 -0.037856504 -0.008818899 -0.029675039
0.010698789 0.078385666 -0.031467333 0.04921359 -0.047940686 0.02076222 -0.013629619 -0.023036163
-0.0034729317 0.02006966 -0.008974453 0.0880426 -0.007167499 -0.061474305 -0.018976027 -0.01081596
0.028967287 0.03340605 -0.037168004 -0.063137434 -0.054102767 0.04373908 0.07255598 -0.0663368
0.043531064 -0.027953276 0.08179995 -0.069480225 0.03808889 0.07127772 -0.058008656 0.034127295
0.0017831806 -0.062418077 -0.08080694 0.05505239 -0.006480916 0.003075534 -0.033983897 0.038492136
0.07473508 0.05989703 0.047756094 0.024672898 0.053653967 0.012331617 -0.05968352 -0.0064909034
-0.01869822 -0.018129395 -0.03837664 0.0405809 0.031309426 -0.0044991174 -0.06882065 0.035326373
-0.002211477 0.06907544 -0.089965306 -0.020118572 0.06298761 0.0312104 -0.012598024 0.082934715
-0.04130343 0.027522262 -0.011198507 0.009856657 -0.012727551 0.053587154 0.009889821 0.03306459
0.071233585 -0.04485776 -0.05240445 0.0023841448 0.06391743 -0.05238779 0.07738394 -0.054428957
-0.061678167 -0.06533341 0.052610405 -0.06969861 0.06569837 0.024988862 -0.0913568 -0.015645519
-0.08203976 0.021234332 -0.078169644 -0.034595013 0.04464586 0.03378634 0.030815378 -0.047687583
-0.0139163425 -0.082077816 -0.044877175 0.024981448 0.038215976 0.006482331 0.07943804 0.05105518
0.07544165 -0.062274396 0.008705789 -0.032705776 -0.034428902 -0.031749446 -0.077398814 0.0063784868
0.057735838 0.046235345 0.059690718 0.0010996179 -0.029115254 0.071948856 0.08723546 0.0071187746
-0.0032847004 -0.019013092 0.05201886 0.006610693 -0.047682982 0.018718556 0.025293173 -0.029534822
0.032852843 0.077660166 -0.002158573 0.05121343 -0.039728235 0.034067314 -0.010619857 0.030486582
0.05540547 0.059026457 0.050249692 -0.043548796 0.00034520344 0.00023175776 -0.03177244 0.055296633
-0.076041 0.03467226 -0.018611645 -0.046275314 0.030409114 -0.04856727 -0.06414167 -0.0754576
0.026777824 -0.038076848 -0.052430887 0.05977235 0.07078285 0.05955025 -0.04061276 0.06891535
0.055117093 0.050568726 0.0779884 -0.00833525 0.09549547 0.039708912 0.009661052 0.06872256
-0.06520571 0.049636822 -0.067504555 -0.015186786 -0.0847756 -0.006495666 -0.06323673 0.04086375
0.014654373 -0.022971556 -0.016537992 0.07780674 -0.054248095 -0.04529571 -0.083589844 -0.07399112
00000000: c5c0 b83c 748c acbd 644f 893d 200f 8a3d
00000010: 1e6c 303d dc1c 3fbd f47c f5bc ad89 b23d
00000020: 91f8 ba3c 640c 9b3d 36e0 7dbb 1768 013d
00000030: 00ae 283c a60b 7cbd 5057 3f3d d30f 9e3c
00000040: ffea 2b3b 83bf f1bc 616f 8dbc 4858 923d
00000050: 1226 9ebd 0861 393d ef4b b0bd 9ef2 743d
00000060: 13a9 adbd ea5e d7ba 3004 473d e1d7 71bd
00000070: 5c9a 2d3d f185 10bd 98f0 cdbc 759c b5bd
00000080: 4011 8d3d 7b96 bcbd 5b8f ab3d b06b ec3c
00000090: b48d bfbc 5f1a c3bb 2582 3a3d e8e5 65bd
000000a0: 36c3 993c a60d 5c3c e44a 963d e6b7 f8bb
000000b0: b609 59bd ecd5 273d b09e 9fbc 1cae 5e3d
000000c0: f49e 27bd 8e55 3bbd 4000 86bc 46b2 0abd
000000d0: 558f 1cbd 38b2 96bd cfc1 613c a58b 123c
000000e0: 999a a1bd e034 d9bc 7b29 3f3d 880a 0fbc
000000f0: 3336 273d ad77 3a3d dc19 763d 90ec aebc
00000100: f667 3dbd 66f5 65ba e8c0 0f3d 80e8 84bc
00000110: 5e11 c0bd 6c0f 1bbd 257d 10bc 1119 f3bc
00000120: f949 2f3c aa88 a03d e4e3 00bd 3094 493d
00000130: 745d 44bd 8815 aa3c c44e 5fbc 56b6 bcbc
00000140: 209a 63bb 2169 a43c 9609 13bc ae4f b43d
00000150: 57dd eabb 7bcc 7bbd 9d73 9bbc 6d35 31bc
00000160: ce4c ed3c c8d4 083d 7a3d 18bd 334e 81bd
00000170: dd9a 5dbd c027 333d 3b98 943d 97db 87bd
00000180: a14d 323d 45fe e4bc bb86 a73d a64b 8ebd
00000190: 1903 1c3d 0efa 913d 7c9a 6dbd 10c9 0b3d
000001a0: 9db9 e93a 19aa 7fbd 1c7e a5bd 9d7e 613d
000001b0: dd5d d4bb e68e 493b b332 0bbd eea9 1d3d
000001c0: b50e 993d 9756 753d e59b 433d d11e ca3c
000001d0: 43c4 5b3d 8d0a 4a3c b576 74bd a5b1 d4bb
000001e0: 022d 99bc 1984 94bc d330 1dbd 2838 263d
000001f0: 503e 003d 556d 93bb d7f1 8cbd 63b2 103d
00000200: 6dee 10bb 6d77 8d3d bb3f b8bd b4cf a4bc
00000210: a6ff 803d f4ac ff3c f167 4ebc add9 a93d
00000220: c92d 29bd 5e76 e13c f179 37bc d17d 213c
00000230: 3887 50bc 347e 5b3d ea08 223c bc6e 073d
00000240: eae2 913d c5bc 37bd 0ca6 56bd 503f 1c3b
00000250: 24e7 823d 9494 56bd 797b 9e3d e6f0 5ebd
00000260: 3fa2 7cbd 86cd 85bd 027e 573d 25be 8ebd
00000270: de8c 863d 71b5 cc3c 4619 bbbd 082b 80bc
00000280: 7604 a8bd 9ff3 ad3c 6817 a0bd 80b3 0dbd
00000290: 94de 363d 8c63 0a3d 8870 fc3c 0e54 43bd
000002a0: 5f01 64bc 6a18 a8bd 21d1 37bd e5a5 cc3c
000002b0: 5b88 1c3d bc69 d43b 69b0 a23d 3d1f 513d
000002c0: 2781 9a3d 7013 7fbd baa2 0e3c 7ef6 05bd
000002d0: 5205 0dbd b50b 02bd 4583 9ebd a002 d13b
000002e0: 6a7c 6c3d 4661 3d3d 417e 743d 0e21 903a
000002f0: 1d83 eebc ec59 933d 81a8 b23d 9c44 e93b
00000300: 2144 57bb 58c1 9bbc ba11 553d 839e d83b
00000310: 3b4f 43bd a857 993c a133 cf3c 03f3 f1bc
00000320: b490 063d 4b0c 9f3d d876 0dbb 2cc5 513d
00000330: 13ba 22bd 2b8a 0b3d e9fe 2dbc ffbe f93c
00000340: d9f0 623d bac5 713d 9fd2 4d3d 3960 32bd
00000350: 6cfc b439 0004 7339 d123 02bd b97e 623d
00000360: 62bb 9bbd 8004 0e3d 7377 98bc 2f8b 3dbd
00000370: 891c f93c 79ee 46bd b55c 83bd 8489 9abd
00000380: 2b5d db3c 78f6 1bbd c5c1 56bd dad3 743d
00000390: 99f6 903d f7ea 733d 9159 26bd 7e23 8d3d
000003a0: 76c2 613d 2721 4f3d 62b8 9f3d 9390 08bc
000003b0: 2193 c33d d0a5 223d 6449 1e3c 6abe 8c3d
000003c0: 928a 85bd fb4f 4b3d d43f 8abd ffd1 78bc
000003d0: d49e adbd 99d9 d4bb 4282 81bd bf60 273d
000003e0: e518 703c d82e bcbc af7a 87bc 2459 9f3d
000003f0: 4033 5ebd ff87 39bd 2731 abbd a888 97bd

fc2.bias f4 [84]
-0.048826106 0.07821833 0.08672872 -0.052196063 0.15329689 -0.068353266 0.11742702 -0.074632734
0.18544178 -0.032807667 -0.057899985 -0.03902032 0.0029799275 0.011054703 -0.036041856 -0.028488135
-0.037525687 0.020497734 -0.012948288 0.029044548 0.00038054265 0.052606843 -0.018799556 -0.03043039
-0.030019369 -0.07327118 0.06310839 -0.008021127 -0.08988281 -0.077547975 0.05548757 0.05205038
0.062789254 -0.058703296 -0.08547794 -0.0014754776 0.09391728 0.011019901 -0.011169494 0.038968176
0.05640952 0.037252318 -0.03054562 0.0595497 0.21307959 -0.019155933 -0.024454858 0.0047246157
0.036977362 0.050365068 0.14365429 -0.07183176 -0.05670091 -0.048391063 0.14547578 0.0796706
0.05010416 0.018594865 0.084290035 -0.08534967 -0.04881642 0.0021618519 -0.05403559 0.08242466
0.027146405 0.10767298 0.021678604 -0.026059939 -0.0299232 0.011219181 0.06964795 0.07361394
0.09163582 -0.06924948 0.08718912 -0.02894273 -0.0014284973 -0.087689355 -0.079727605 -0.03332857
0.08466019 -0.042929444 -0.029497208 -0.054739535
00000000: e2fd 47bd ef30 a03d d49e b13d 8acb 55bd
00000010: dcf9 1c3e ccfc 8bbd 947d f03d 0cd9 98bd
00000020: 73e4 3d3e 5561 06bd 8928 6dbd c5d3 1fbd
00000030: e34a 433b c91e 353c a0a0 13bd f35f e9bc
00000040: 89b4 19bd ddea a73c 0e25 54bc d5ee ed3c
00000050: 9283 c739 467a 573d 8701 9abc 2749 f9bc
00000060: 2eeb f5bc 330f 96bd f93e 813d 0c6b 03bc
00000070: 7b14 b8bd 79d1 9ebd ef46 633d c732 553d
00000080: a797 803d de72 70bd 0f0f afbd d064 c1ba
00000090: b457 c03d d18c 343c 4100 37bc 189d 1f3d
000000a0: ab0d 673d e395 183d cf3a fabc 63ea 733d
000000b0: 8931 5a3e e7ec 9cbc 8e55 c8bc f3d0 9a3b
000000c0: 9375 173d 9a4b 4e3d 1c1a 133e 881c 93bd
000000d0: 373f 68bd b535 46bd 9af7 143e 572a a33d
000000e0: 053a 4d3d 4254 983c 41a0 ac3d cfcb aebd
000000f0: baf3 47bd dbad 0d3b 6c54 5dbd 43ce a83d
00000100: 2362 de3c a783 dc3d 5497 b13c a77b d5bc
00000110: 8021 f5bc a8d0 373c 96a3 8e3d e8c2 963d
00000120: 90ab bb3d acd2 8dbd 3690 b23d 4e19 edbc
00000130: 6a3c bbba 7a96 b3bd 3a48 a3bd 8a83 08bd
00000140: 5262 ad3d c9d6 2fbd 21a4 f1bc 9036 60bd

fc3.weight f4 [2, 84]
0.054923903 0.014310879 -0.115538724 -0.05980057 0.18281342 -0.11957386 0.1243356 -0.034684308
0.20117812 -0.16773033 0.028579623 -0.005932407 0.040929675 0.060199622 0.0013345245 -0.109537594
0.019492812 -0.052313793 0.11942206 -0.09456726 -0.060849775 -0.0778397 -0.07891585 -0.05650843
-0.11186292 0.07590023 0.0026072492 -0.11223591 -0.060242154 0.088917546 -0.12379968 -0.14831798
-0.08898432 -0.060782243 -0.08232316 -0.102066875 0.1742466 -0.115326 -0.15321639 -0.12454402
-0.02647737 -0.07076986 -0.06636779 0.014915431 0.17444198 0.08399818 -0.10447876 -0.031186322
0.07219383 0.064494155 0.11892303 -0.04522438 0.0073477626 0.05221359 0.08213261 -0.021034468
-0.16003981 -0.08581348 0.047117725 -0.027004287 -0.086728826 -0.0524498 0.03692103 0.09999733
-0.039143693 0.13139223 0.08572532 -0.01981453 0.044907443 5.8859587e-07 0.12677084 -0.033451624
0.11654776 0.07155683 0.12353833 -0.062384583 -0.14364865 -0.036928017 -0.06766321 -0.06899275
0.014611392 -0.095803685 -0.0647567 -0.05730021 -0.08981609 -0.1046958 -0.057927676 -0.027257558
-0.1248479 0.047367454 0.001289942 -0.00079052895 -0.1600817 0.09653592 0.08228514 0.029314037
0.056287054 0.048590224 -0.056882747 -0.06658621 -0.097179666 -0.06311415 -0.09205233 -0.037270468
0.019960573 -0.055639282 0.05402907 -0.06335848 0.103194 -0.009142315 -0.065583825 -0.06507938
0.10041567 0.07719164 0.014838699 0.18992846 -0.10764436 0.14016984 0.03730977 0.16519757
-0.12438799 0.03790619 0.19097444 0.1483604 -0.029451653 0.111772574 0.18715353 0.104872376
-0.14384697 0.0018057325 0.056536008 0.07221957 0.09730644 -0.116979085 -0.10258973 -0.099368334
-0.10667495 0.04353844 -0.13530973 -0.039982636 0.08373493 0.09444881 0.054734223 0.04154747
-0.06712789 -0.07436655 -0.01534895 -0.11339772 -0.14937212 -0.021190114 -0.0674992 0.07748587
0.10185408 0.057223447 0.04075362 0.019136135 -0.14811495 0.023945592 -0.09198442 0.0351758
-0.009824919 -0.004318198 -0.092207 0.05348802 -0.12082016 0.015697299 -0.06096358 -0.051351134
00000000: e3f7 603d 2d78 6a3c 919f ecbd 71f1 74bd
00000010: 7133 3b3e 24e3 f4bd aaa3 fe3d 2211 0ebd
00000020: a301 4e3e 80c1 2bbe d01f ea3c a364 c2bb
00000030: e0a5 273d e193 763d 36eb ae3a 3f55 e0bd
00000040: 64af 9f3c fd46 56bd 8e93 f43d 7bac c1bd
00000050: 9d3d 79bd 6c6a 9fbd a29e a1bd 6275 67bd
00000060: 6318 e5bd 9471 9b3d 62de 2a3b f1db e5bd
00000070: 7ac0 76bd 671a b63d b08a fdbd abe0 17be
00000080: 693d b6bd cdf6 78bd 0b99 a8bd 7008 d1bd
00000090: b36d 323e 0a30 ecbd c2e4 1cbe ef10 ffbd
000000a0: 12e7 d8bc caef 90bd d6eb 87bd da5f 743c
000000b0: eba0 323e 3d07 ac3d f6f8 d5bd 757a ffbc
000000c0: 5cda 933d 8315 843d eb8d f33d 333d 39bd
000000d0: 80c5 f03b ebdd 553d 2435 a83d 7a50 acbc
000000e0: 7ae1 23be fabe afbd 84fe 403d 1838 ddbc
000000f0: e29e b1bd 9ad5 56bd 823a 173d 66cb cc3d
00000100: 2355 20bd af8b 063e c290 af3d 1552 a2bc
00000110: def0 373d 0000 1e35 37d0 013e 9204 09bd
00000120: 98b0 ee3d 638c 923d aa01 fd3d fa86 7fbd
00000130: a218 13be d541 17bd 0293 8abd 124c 8dbd
00000140: 9f64 6f3c b934 c4bd 299f 84bd a0b3 6abd
00000150: 80f1 b7bd c06a d6bd 9245 6dbd 3e4b dfbc
00000160: 41b0 ffbd 6004 423d 4513 a93a 803b 4fba
00000170: 75ec 23be a0b4 c53d 1d85 a83d fe23 f03c
00000180: 418d 663d 8b06 473d e2fd 68bd 5a5e 88bd
00000190: 2206 c7bd fe41 81bd ef85 bcbd eba8 18bd
000001a0: 5b84 a33c 04e6 63bd 964d 5d3d 17c2 81bd
000001b0: 6057 d33d a6c9 15bc d050 86bd 5748 85bd
000001c0: bba6 cd3d a716 9e3d 041e 733c 9b7c 423e
000001d0: a574 dcbd af88 0f3e 21d2 183d 8d29 293e
000001e0: 21bf febd 8543 1b3d ce8e 433e caeb 173e
000001f0: 9844 f1bc 05e9 e43d 2da5 3f3e 54c7 d63d
00000200: 9f4c 13be 54ae ec3a 4d92 673d dbe7 933d
00000210: 9948 c73d bb92 efbd 901a d2bd a081 cbbd
00000220: 6578 dabd 5d55 323d a28e 0abe d5c4 23bd
00000230: 387d ab3d 616e c13d fe30 603d ae2d 2a3d
00000240: 597a 89bd 7d4d 98bd 2a7a 7bbc 103d e8bd
00000250: 01f5 18be e496 adbc 053d 8abd e9b0 9e3d
00000260: df98 d03d 2263 6a3d 45ed 263d 62c3 9c3c
00000270: 72ab 17be 8c29 c43c 5462 bcbd 8014 103d
00000280: b2f8 20bc ac7f 8dbb 06d7 bcbd 4116 5b3d
00000290: 8f70 f7bd 9f97 803c f2b4 79bd 9155 52bd

fc3.bias f4 [2]
0.2508347 -0.36402518
00000000: 686d 803e 8261 babe
